shrimp_weight_prediction_pytorch.pt (torch, 96300 bytes, 7 tensors)

layer1.weight f4 [64, 320]
000000 3b 4a a4 3c b5 a0 1e 3d 3b 31 88 3d d1 d5 42 3c
       0.020054927 0.03872748 0.06650015 0.011891798
000010 fb 4f 22 3c f5 6e 29 bd 4e b1 ac 3d 43 5f ba bd
       0.009906764 -0.041365582 0.08432256 -0.09100201
000020 fe 17 14 bb 87 f7 bb bc 65 2d ab 3c 4b 59 2b bc
       -0.0022597308 -0.022945179 0.02089567 -0.010458301
000030 e9 1c 28 3d ab 02 79 bd dd 4e 34 3d 73 81 02 bd
       0.041043196 -0.06079356 0.044020522 -0.031861734
000040 f4 f1 5b bd 34 c9 49 bd 0b 43 58 bc 9d 2a 3d bd
       -0.05369754 -0.049264148 -0.013199578 -0.046183217
000050 77 50 d8 bb ec 67 7c 3b da 93 d9 bc 0a 5f f9 bc
       -0.006601389 0.003851409 -0.026559759 -0.030440826
000060 20 e2 73 bb 14 2b 2c 3c aa 08 51 3b 6b 1e 97 bd
       -0.0037213638 0.0105083175 0.0031896033 -0.07378849
000070 2c a1 cd 3b cc b9 22 bd 6e 3b ff 3d d9 68 d1 bd
       0.0062753167 -0.03972797 0.12462507 -0.10225076
000080 bd c3 bc 3c a6 2c f1 3b ba 85 a3 3d ff c4 08 bd
       0.023042554 0.007360059 0.07984491 -0.033390995
000090 05 8f 49 3d 6b b0 a3 bb b6 c4 8e 3d 74 d4 b1 bd
       0.04920866 -0.004995396 0.069711134 -0.086831
0000a0 97 c5 b0 3c 0b f4 77 bc d8 eb 44 3d 19 70 ce bd
       0.021578593 -0.015133868 0.04807648 -0.10079975
0000b0 f5 25 3f bc f5 75 99 3c 98 9b a5 3d e6 2a e0 bb
       -0.0116667645 0.018733004 0.08086318 -0.0068410514
0000c0 34 53 a9 bc 97 ba d9 3b 2d 46 b4 3d 8c 25 49 bd
       -0.020669557 0.0066445577 0.088024475 -0.049108073
0000d0 b2 6f 06 3d be 40 29 bd 51 c6 d4 3c e8 bf b1 bc
       0.032821365 -0.04132151 0.02597347 -0.021697953
0000e0 00 83 26 bd f2 db 98 3c b6 f8 74 3d 81 33 19 bd
       -0.040652275 0.018659566 0.0598075 -0.037402634
0000f0 bd ca 5d bd dc 87 0e bd 28 2b 87 3d be 53 3d bd
       -0.054148424 -0.034797534 0.06600028 -0.04622244
000100 b2 b6 1d bd c8 ba 82 3c cc 59 8a 3d bc 4b e5 3b
       -0.03850431 0.015958205 0.06755409 0.0069975536
000110 01 2e 5b bd a4 86 3b bd 01 f8 85 bc f2 13 70 bd
       -0.05351067 -0.0457827 -0.016353609 -0.05861277
000120 4b 23 6d bb 83 74 d2 3c f9 a1 74 3c 74 c8 8c bd
       -0.0036184366 0.025690323 0.014931195 -0.06874171
000130 a9 c8 19 3d f5 ee ec bc 5d 8b 00 3d b5 28 b6 bc
       0.03754488 -0.028922537 0.031382907 -0.022236208
000140 75 47 67 bc 8e e5 4f 3d ad d3 11 bd a1 06 e4 bc
       -0.014116158 0.05075603 -0.03560226 -0.027835192
000150 4e cf 3c 3b 20 35 d4 3c 43 58 39 bd 78 f2 1a bd
       0.0028810087 0.025904238 -0.04525019 -0.037828892
000160 09 f3 2e bd 31 c3 43 bd 03 cf cb 3c 28 63 72 bd
       -0.042712245 -0.04779357 0.024878984 -0.059176594
000170 a3 1b 7d 3d 2c 38 54 3d 34 79 8e bd ce d2 12 3d
       0.061793935 0.051811382 -0.069567114 0.03584557
000180 35 21 35 bd 45 bc af bc 48 07 20 3d 74 72 b3 bd
       -0.04422112 -0.021452079 0.039069444 -0.087620646
000190 04 e1 c9 bc f4 cf c6 3c aa f9 1f 3d f3 60 d3 3c
       -0.024643429 0.024269082 0.039056458 0.025803065
0001a0 29 b0 45 bd a7 5a d8 3c 6b bc 12 3d 96 a2 a9 3c
       -0.048263703 0.026410414 0.03582422 0.02070741
0001b0 66 78 1e 3d 08 7d 03 bd 35 fa 8e bc bd 09 3c bd
       0.03868904 -0.03210166 -0.017453292 -0.045907725
0001c0 af 42 53 3d be 64 a0 bc f4 c0 15 3c b4 38 3c bd
       0.051577266 -0.019579288 0.009140242 -0.045952514
0001d0 8d a2 62 bd 0e 65 de bc d9 3b c9 bb 30 f4 db bd
       -0.0553308 -0.027147796 -0.0061411676 -0.107399344
0001e0 63 4d 25 be e2 ad a5 bd 8c 6b b0 bd b9 fa c3 bd
       -0.16142802 -0.08089806 -0.08614263 -0.09569306
0001f0 6f d6 33 be 5a 5a 2e be 59 c8 d1 bd 60 c9 3d be
       -0.17562269 -0.17026654 -0.102432914 -0.1853385
000200 5d 8a 38 be 68 3c 91 bd 5b bb 07 be a1 f2 ec bd
       -0.18021531 -0.070916 -0.13255064 -0.11569715
000210 a6 33 21 be d8 c1 cd bd 95 ac d5 bd ac 01 ec bd
       -0.15742359 -0.100467384 -0.10433308 -0.115237564
000220 da 1b 97 bd c6 9d 29 be c7 44 21 be 11 55 c7 bd
       -0.07378359 -0.16564092 -0.15748893 -0.09733022
000230 89 dd ec bd 9b 6f 88 bd 7b 27 33 be 73 13 1e be
       -0.11565692 -0.06661912 -0.1749553 -0.15437107
000240 46 d7 d6 bd 0d 61 29 be 14 b3 0b be df 20 bf bd
       -0.10490279 -0.16540928 -0.13642532 -0.093324415
000250 a4 00 c8 bd 08 37 35 be ea 8e 0a be 95 92 bf bd
       -0.09765747 -0.17696774 -0.1353108 -0.0935413
000260 dd ee da bd d7 3c b5 bd 99 2c 20 be 2b 7c b5 bd
       -0.10690091 -0.08849495 -0.15642013 -0.08861574
000270 15 7c d4 bd c7 7b be bd 88 8b 09 be 67 32 85 bd
       -0.10375229 -0.093009524 -0.13432133 -0.06503754
000280 b8 7a 91 bc b3 c5 f6 bc 10 b2 b0 3c 01 cb 5f bd
       -0.017758712 -0.030123567 0.021569282 -0.05463696
000290 7c 88 34 bd 7e 37 43 bd 6a 60 c5 bc f0 9a a1 3b
       -0.044075474 -0.047660343 -0.024093825 0.0049318
0002a0 12 63 2f 3d 3d d7 df bc ff 8b e0 bc 7c bc 3b bd
       0.04281909 -0.027324313 -0.027410505 -0.04583405
0002b0 30 2b 06 3c 32 8e c3 bc 58 4b c4 3c 30 43 9e bc
       0.008189008 -0.023871515 0.023961708 -0.019319147
0002c0 e2 b2 f4 bc 28 89 28 3d a0 78 cc bb 44 ca 64 3d
       -0.029870454 0.041146427 -0.0062399656 0.055856958
0002d0 36 c1 88 bc d8 b6 e0 bc e0 db 80 ba b0 3e 3f bd
       -0.016693693 -0.027430937 -0.0009831153 -0.046690643
0002e0 dc 53 1a bc 44 a5 42 bd b2 c8 da bc d8 2f 97 3c
       -0.009419408 -0.04752089 -0.026707027 0.01845543
0002f0 58 25 9a bc c4 b4 f0 3c 94 41 0d bc 70 35 31 3b
       -0.018816635 0.02938307 -0.008621592 0.0027039908
000300 ac 7e 8a 3c ee 80 20 bd 8d 30 d5 bc d8 a9 c0 bc
       0.016906105 -0.039185457 -0.026024127 -0.023518488
000310 4c 19 be 3c 90 70 24 bb a4 17 c7 3c 48 d1 64 3c
       0.023205422 -0.0025091507 0.024303265 0.013965912
000320 a8 78 c4 bc cc 56 58 3d f1 76 04 bd 5c a6 9e 3c
       -0.023983315 0.05281715 -0.032339994 0.019366436
000330 20 57 b3 bb 6e 98 1e 3d 80 f6 3b 3d 8c ba 25 3d
       -0.0054730326 0.038719587 0.045889378 0.040461108
000340 94 b9 ef 3c 78 5d b5 3c a4 9c ba 3c de 00 b0 bc
       0.029263295 0.022139296 0.02277977 -0.021484789
000350 e0 97 87 bb c9 79 f6 bc 87 37 fe bc 7a 09 16 3d
       -0.004137978 -0.030087369 -0.031032337 0.03663013
000360 24 ba d7 3c c8 a1 29 3c 78 70 7b 3c 90 7e 83 3c
       0.026333876 0.010353513 0.015346639 0.01605156
000370 98 e3 10 3c b5 cf 27 bd fc 23 9c 3c 9a d0 02 bd
       0.008843325 -0.04096957 0.019060127 -0.03193722
000380 a0 ef 3f 3d 97 11 07 bd 24 fc f2 3c cd ab 4b bd
       0.046859384 -0.03297576 0.029661246 -0.04972439
000390 80 41 0a 3c 90 93 68 bb a8 0c 67 3c 44 43 06 bd
       0.008438468 -0.0035488345 0.014102139 -0.032778993
0003a0 82 ee c0 bc c4 99 25 3d ae ed 29 bd 10 97 24 3c
       -0.02355123 0.040429845 -0.041486435 0.010045782
0003b0 e0 cc 1d bd e2 f1 37 3d c6 d5 3e bd 30 e9 be bb
       -0.038525462 0.04490841 -0.04659059 -0.005826138
0003c0 08 6f 61 3c 28 91 01 3d a0 2b ef bb 58 a2 51 3c
       0.013759382 0.031632572 -0.0072989017 0.012795053
0003d0 ba d3 10 3d 10 83 dc 3c 90 b5 56 bd 92 25 38 3d
       0.03535817 0.026917964 -0.052419245 0.044957705
0003e0 8c 3f 9b 3c a5 3f 43 bd a0 65 f3 bc 7c cd 09 bd
       0.0189512 -0.047668118 -0.029711545 -0.03364323
0003f0 dc 6c dc 3c c0 03 7d 3b c6 de 3a 3d 28 36 26 3d
       0.026907377 0.0038606972 0.04562261 0.04057899

layer1.bias f4 [64]
000000 05 01 51 3d 45 2a 10 3e df 5a a2 3d 7e 27 88 3d
       0.051026363 0.14078625 0.079274885 0.066481575
000010 2a 8a 96 3d 44 89 bc 3d 5e 27 7b 3d da 4f 1e 3e
       0.073505715 0.09205869 0.06131684 0.15460148
000020 69 f0 c7 3d a4 81 92 3d 96 3b 33 3e d1 ca d3 3d
       0.097626515 0.07153633 0.17503199 0.103414185
000030 c7 a8 dd 3d bf 4e 1b 3e ae c9 18 3e a4 70 01 3e
       0.10823207 0.15166758 0.14920685 0.12640625
000040 3e 38 97 3d af 99 74 3d 75 7c 10 3d 61 2e 2d 3e
       0.07383774 0.059716877 0.03527494 0.16912223
000050 0b f7 af 3d ea 98 f2 3d bd 7f 1d 3e f9 ff 1a 3e
       0.085920416 0.11845572 0.1538076 0.15136708
000060 2f ed bb 3d 4c 4d 2b 3d e5 f6 25 3e 1e 71 07 3d
       0.091760986 0.041821763 0.16207464 0.03306686
000070 28 02 86 3d 69 e8 23 3e 69 05 7a 3d d9 d0 1f 3e
       0.0654338 0.16006626 0.061040316 0.15607013
000080 e0 f5 42 3d cc d6 ad 3d a1 57 0c 3e 59 f7 12 bd
       0.047597766 0.08488235 0.13705303 -0.03588042
000090 62 6a e0 bd 25 37 03 3e 8f 45 0c 3e 66 03 fc 3d
       -0.10957791 0.12814005 0.1369841 0.12305336
0000a0 dc 21 cc bd eb 8a f1 3d 0a 2a be 3d 11 5e 9d 3d
       -0.09967396 0.117940746 0.09285362 0.07683957
0000b0 08 c4 c9 3d de c9 2e 3e 2d 05 bd 3d 57 7d 6a 3d
       0.09851843 0.17069194 0.09229503 0.05724844
0000c0 1f 4a a7 3d 9c d6 99 3d dc f3 df 3d 6a 98 a8 3d
       0.08168434 0.075116366 0.10935184 0.08232196
0000d0 07 25 57 3d 70 5a b0 3d 6c 37 c9 3d e3 bd e5 3d
       0.052525546 0.086109996 0.09825024 0.11217859
0000e0 38 15 07 3e 06 ec 84 3d 43 67 04 3e 8c 18 1e 3e
       0.13191688 0.064903304 0.12930016 0.15439051
0000f0 66 e1 b0 3d 2f e1 c9 3d 8c b2 f5 bd c2 67 cb 3d
       0.08636741 0.098574035 -0.11996946 0.099318996

layer2.weight f4 [32, 64]
000000 0c 6d ec bd d0 a6 26 bd 92 00 30 bd e8 43 3e 3e
       -0.115442365 -0.04068643 -0.042969294 0.18580592
000010 55 48 e0 bd c8 bd 0c be e5 9d 34 bc 50 df 41 bc
       -0.10951296 -0.13744271 -0.011023973 -0.011833027
000020 9d be 64 3d 28 60 44 bd cc 63 32 bd 58 b2 95 bc
       0.055845845 -0.047943264 -0.043552205 -0.018273517
000030 94 34 6c 3c 74 81 89 bd 37 92 11 be 72 b6 ca 3d
       0.0144168325 -0.06714144 -0.14215933 0.0989808
000040 03 f5 f2 bd f6 76 01 be c9 31 52 3b bc 5b 74 bd
       -0.118631385 -0.12643036 0.0032073131 -0.059657797
000050 8b 14 4b bd 52 21 2f 3a 29 51 51 3d b8 3c 11 bd
       -0.04958014 0.00066806853 0.05110279 -0.035458297
000060 4a d4 38 3d 07 4a 90 3d e4 8b ce bd ab 82 6c 3d
       0.04512433 0.070453696 -0.10085276 0.057741802
000070 c1 9d 87 3c af 71 82 3d f7 8b ad 3d ca b4 af 3d
       0.016554715 0.0636934 0.08473962 0.08579405
000080 c7 e4 07 3e db 50 9f bd d6 a3 ab bd 0b 7a 35 3d
       0.13270865 -0.07779094 -0.083808586 0.044305842
000090 c3 ce 20 be 7f 35 f2 bd 80 ad 75 3d 86 2c 09 be
       -0.15703873 -0.1182661 0.059979916 -0.1339589
0000a0 36 fb ad 3d 66 14 82 3d 37 4c df 3d 35 84 ac bd
       0.0849518 0.06351547 0.10903209 -0.08423654
0000b0 50 23 9f 3c 10 3c aa 3d af 9a 0e 3c c6 1e 13 3e
       0.019426018 0.08312237 0.008703872 0.14367208
0000c0 a5 89 f4 3d 47 ea 88 3d d4 d7 0d 3e 94 8b 69 bd
       0.11940316 0.0668531 0.13851863 -0.057017878
0000d0 f0 8f a7 3d c1 4a 1a 3e cc 36 c6 bb c5 81 9b 3d
       0.08181751 0.15067579 -0.0060490128 0.07593111
0000e0 08 da f1 3c fb 6b c1 bd 98 1c bf 3c 37 c6 ac bd
       0.02952291 -0.09444424 0.023329064 -0.08436244
0000f0 60 6e 11 bd 5e dc a4 bd 76 28 b6 bd bf 3f a7 3d
       -0.035505652 -0.08049844 -0.08894436 0.081664555
000100 5d 54 d6 3d 8c bb a0 bd 06 65 c4 3d 56 96 d0 3d
       0.1046531 -0.07848272 0.09589581 0.10184924
000110 0e b3 27 3d 58 eb 08 3b cb 1e 43 bd e9 24 4c bc
       0.040942244 0.002089223 -0.04763679 -0.012459972
000120 9c 1a 10 3e 14 2f 23 3e 5c 21 44 3e 10 79 08 3d
       0.1407265 0.15935928 0.1915335 0.03331858
000130 08 19 92 bc 46 ec 39 3e be f4 64 3e 75 fa a2 3d
       -0.017834201 0.18156537 0.22358987 0.07957927
000140 e9 2a 1f 3e 1d 4a dd 3d db 33 ea 3d 43 2c 33 3e
       0.15543713 0.108051516 0.11435672 0.17497353
000150 60 75 75 3c 58 33 2c 3d 19 1b 2b bd 89 d7 34 3e
       0.014981598 0.042041153 -0.04177389 0.17660345
000160 7b 9e fd 3d 8d 11 40 3c 0a 2c 2d 3e 1d 61 c4 3d
       0.123837434 0.011722934 0.16911331 0.095888354
000170 d6 74 21 3e ce 9f a9 3d 1e 59 61 3d 24 31 b4 3d
       0.15767226 0.082824335 0.05501663 0.08798435
000180 9f 47 2c 3e f5 4e 31 3d 72 6c de 3d 09 3c 3d be
       0.16824196 0.04328819 0.10860528 -0.18479933
000190 a3 7e 3e be 83 1c 17 bc d0 78 3f 3e b1 34 11 3e
       -0.18602996 -0.009223106 0.1869843 0.14180256
0001a0 02 08 3d be af cd 42 3d a0 c6 63 3c 05 a1 6a 3d
       -0.18460086 0.047559436 0.013902336 0.057282466
0001b0 4c 78 8c 3d 33 e4 b4 3d 04 b5 e4 3d dc 81 44 3e
       0.06858882 0.08832588 0.111673385 0.19190162
0001c0 0e 1d d8 3c 5f aa d7 3d 9e 7a 2a 3e 52 d0 06 3c
       0.026381042 0.105305426 0.16648337 0.008228378
0001d0 5a c4 a4 3c 2a 8e 25 3e 00 8c 11 3e 2a 81 29 3e
       0.020113159 0.16167513 0.14213562 0.16553178
0001e0 cb 97 34 3e c3 17 4c 3e 29 5d c3 bc bd d8 30 3d
       0.1763603 0.1993094 -0.023848133 0.043175448
0001f0 aa 3b 1a 3e 3b 0c e6 3d 2a f3 11 be e5 dd fb 3d
       0.15061823 0.112328015 -0.14252916 0.122981824
000200 be 2b 20 bd 5d 4c 10 be f1 4e e1 bc cd 55 eb 3d
       -0.039104216 -0.1409163 -0.027503463 0.114909746
000210 a5 5f 25 bc fb e8 b9 3d d4 2e 90 bb 97 ef 3a 3e
       -0.010093604 0.090776406 -0.0044001136 0.18255459
000220 c4 cf 08 3d 0e 4c 8e bd 10 ae 98 bd 70 e1 12 bd
       0.033401266 -0.069481 -0.07455075 -0.035859525
000230 17 90 16 3e 83 d4 1c 3c 1a 28 54 3e 2b 28 ea 3c
       0.14703403 0.009572151 0.20718423 0.028583607
000240 5a 1e 33 3e 63 f9 85 bd f3 f5 12 3e df e9 94 3d
       0.17492047 -0.06541707 0.14351635 0.0727117
000250 a1 bd 65 3e 4a 8c bd bd eb d9 00 3e 67 12 b8 3c
       0.22435619 -0.09255274 0.12583129 0.022469712
000260 a9 bd 5d bd c2 fc 43 bd 60 34 9b bd 53 ae 93 3c
       -0.054135952 -0.04784847 -0.07578349 0.01802746
000270 3e 9b 33 3e f4 f5 f4 3d 51 7f 5e 3d 52 cd 97 bc
       0.17539689 0.11960974 0.054320637 -0.018530522
000280 6b 9c 12 3c d8 28 8c bd 87 11 85 bd 42 55 f8 bd
       0.008948426 -0.06843728 -0.06497484 -0.12125637
000290 fe 73 0c be ac a3 b5 3d e4 64 7d 3d 53 c7 1b 3d
       -0.13716123 0.088691086 0.061863795 0.038031887
0002a0 21 06 00 be fd b1 a8 bd 02 f5 d2 3d 22 9d 49 3e
       -0.12502338 -0.082370736 0.10300638 0.19688848
0002b0 2c 19 df bd 84 c9 b2 3d 91 a9 29 3e 71 30 dc 3d
       -0.10893473 0.08729842 0.1656859 0.10751427
0002c0 7d 64 1b be 1f 1f 59 3d 5d 7c 9a 3d fb 5f b7 bd
       -0.15175052 0.053008195 0.07543252 -0.08953854
0002d0 31 65 0a 3e 1e 83 aa 3d d5 dc 58 bd 6c f8 82 3d
       0.13515164 0.0832579 -0.052944977 0.06395039
0002e0 03 55 c8 3d 35 e5 d6 bb 64 69 7a 3d 8e a4 31 3d
       0.0978184 -0.0065580853 0.061135665 0.043369822
0002f0 9e db 80 3d 70 d1 d1 bc 12 a3 2b bd 1c 55 2d 3e
       0.06291889 -0.025612563 -0.041903563 0.16926998
000300 e7 75 0f 3e 38 d0 da 3c f9 91 7c 3c eb 59 d0 3b
       0.1400982 0.026710615 0.015415662 0.0063583753
000310 34 e5 92 3c 27 94 ef 3c d1 bb a6 3d e4 61 a2 3c
       0.017931558 0.02924545 0.08141292 0.019822069
000320 0a a5 05 bd 02 b6 66 3d 4a c1 26 3e 74 60 3c 3e
       -0.032628097 0.05632592 0.16284671 0.18396169
000330 11 21 30 3e 69 f4 34 3e 4d 7a 02 3d 01 65 26 3e
       0.17200114 0.1767136 0.031854916 0.16249467
000340 01 66 21 3d 00 1d 24 3d aa f3 01 3e 03 4f 04 3e
       0.03940392 0.04006672 0.12690607 0.12920766
000350 b0 f0 1b 3e 6c 48 28 3e e2 51 e3 3d 50 06 00 3e
       0.15228534 0.16433877 0.11099602 0.12502408
000360 48 29 1b bd 65 7c 08 3d 81 8e 97 bc 31 9d af 3d
       -0.037881166 0.033321757 -0.018500568 0.08574904
000370 48 8c 33 3e 24 b6 62 3a 79 11 01 bc 66 16 2b 3e
       0.17533982 0.0008648357 -0.007877701 0.16707763
000380 7e e3 27 3d f8 2b e9 3c 24 58 1f 3e f2 8e 1c be
       0.040988438 0.028463349 0.15560967 -0.15288904
000390 f5 58 53 bd 32 cf c2 3d 5f 6c ba 3d 43 94 06 3e
       -0.051598508 0.095121756 0.091027014 0.13142495
0003a0 66 c4 82 3d c7 16 ed 3c 0e 97 15 bd 55 75 30 3e
       0.06385116 0.028941525 -0.03652101 0.17232259
0003b0 de 91 e6 bc 9b cb 95 3b ab 0f 12 3e a8 bf 46 3d
       -0.028145727 0.004571391 0.1426379 0.04852262
0003c0 68 3a 0e 3e da 8d 0f 3e 8f ce d9 3d 85 ef 85 3d
       0.13889468 0.14018956 0.10635101 0.06539825
0003d0 4f 13 db 3c d0 ac c1 3d 97 de 0f 3b 36 c1 44 3c
       0.026742605 0.094567895 0.0021952742 0.012008956
0003e0 e3 97 3b 3e ff 2f 05 3d b4 57 1a 3e 8b 9a 4c 3d
       0.18319659 0.032516476 0.15072519 0.04995207
0003f0 6f ab f8 3c 90 3e 88 bd 6f 1b ba 3b 23 49 5e 3d
       0.030355183 -0.06652558 0.00567954 0.054268967

layer2.bias f4 [32]
000000 fd 57 3d 3c d3 d2 50 3e d2 75 d3 3d aa 56 aa bc
       0.011556623 0.20392923 0.10325207 -0.020793278
000010 45 42 4e 3c b8 26 64 3e ca 32 ca bb 93 d7 32 3e
       0.012589042 0.22280395 -0.0061706053 0.17465048
000020 c1 e8 99 3c b0 8b 1d 3e c7 ff cc bc 24 98 ee 3d
       0.018787744 0.15385318 -0.025024308 0.11650112
000030 96 19 9f 3c 8a 9f 16 3e f0 a1 8a 3d 26 81 4c 3d
       0.01942138 0.14709297 0.067691684 0.049927853
000040 11 c2 13 bd e8 c9 34 bd ee bd 1e bc 41 b3 c2 3d
       -0.036073748 -0.044137865 -0.009688837 0.09506846
000050 bf 47 8f 3d 50 f6 7d bd 77 a9 9e 3c 41 2d 0e 3e
       0.06996106 -0.06200248 0.019367917 0.1388445
000060 ca 61 b5 bd 2c 8c 05 3e c9 45 3e 3e 40 43 d3 3d
       -0.088565424 0.13041753 0.18581308 0.10315561
000070 5d 5f 33 3e a5 b3 ad 3d 6c b8 c0 3d 15 96 2f 3e
       0.17516847 0.0848153 0.09410176 0.17147096

layer3.weight f4 [16, 32]
000000 82 3e 42 3d 0b b2 e6 3d f9 5f 18 3e 78 3b 65 bd
       0.047422893 0.11264428 0.1488036 -0.055964917
000010 3b 6a d1 ba 66 e8 66 3d 43 cc 75 3b 42 b8 7d 3d
       -0.0015977094 0.056373976 0.0037505783 0.0619433
000020 be 70 36 be 7e b4 3a be 39 27 62 3d cc c5 db bc
       -0.17816445 -0.18232915 0.055213187 -0.026827715
000030 dc 63 17 3e 2c 26 15 be 76 dc 7d bd 34 61 da 3d
       0.14784187 -0.14565343 -0.061977826 0.10663071
000040 8b ff fa bd 4b da 25 be 33 0d dc 3c c6 f2 90 bd
       -0.12255772 -0.16196553 0.026861763 -0.07077555
000050 ad 37 1d be ec d8 2e 3d 21 66 bd bd 19 c2 a6 bd
       -0.1535327 0.04268734 -0.09247995 -0.0814249
000060 ca 04 29 bc 41 08 aa ba 17 06 09 3d 69 bb 8e 3d
       -0.010316083 -0.001297243 0.033453073 0.069693394
000070 26 01 f9 3c 7a 2a 13 bd b6 cb 20 be 6c a9 25 be
       0.030396055 -0.03592918 -0.1570271 -0.1617791
000080 98 92 8b 3e 0e ad 3e 3e ae 25 45 bd 41 9a 6e 3d
       0.2726028 0.18620703 -0.048131637 0.058252577
000090 0c c8 64 3d db 14 44 3e d9 a9 ef 3d 2f c7 80 bb
       0.055854842 0.1914858 0.11702318 -0.0039299945
0000a0 f4 da cf bc 74 4c ca 3d 82 6d 0c bd 3d 87 c7 3d
       -0.02537296 0.098778635 -0.034284122 0.097425915
0000b0 32 ce 09 3e 3f 01 36 3e 9b 94 37 3e 06 1b 05 be
       0.13457564 0.17773913 0.17927782 -0.1299859
0000c0 93 f8 12 3d 15 8c 03 bd e3 08 1b 3b 64 f4 54 3e
       0.03588159 -0.032116015 0.002365642 0.20796353
0000d0 80 fb 88 bd f0 04 6c bc 76 d1 32 3e 91 a3 04 3c
       -0.06688595 -0.014405474 0.17462716 0.008095638
0000e0 77 71 e8 3d 82 cf 61 3e b7 4a d0 bd 75 92 1b bd
       0.11349767 0.22051814 -0.10170501 -0.03798147
0000f0 c4 31 94 bd 26 49 00 3e e9 6c cd bc d7 81 58 3c
       -0.072360545 0.12527904 -0.025076346 0.01321455
000100 9a 95 9a bb af 42 a0 bd 4c fe 0a 3d 66 07 0e be
       -0.004717541 -0.07825219 0.033933923 -0.1387001
000110 5b f5 06 3e dc e0 f0 bd ab 5c 1d 3e 48 8a 3c be
       0.13179533 -0.117616385 0.15367381 -0.18412125
000120 10 27 0d be 7a ac a4 bc 42 02 fa bd ab 9f 22 3e
       -0.13784432 -0.020101774 -0.12207462 0.15881221
000130 ae d8 e6 bd 7e 80 15 3e 77 19 e4 bd 9a 26 02 bd
       -0.11271797 0.14599797 -0.111376695 -0.031775095
000140 26 2d 30 be 31 67 37 be ef fa 80 bb fa 85 31 be
       -0.17204723 -0.17910458 -0.0039361636 -0.17336264
000150 bd be b8 bd 1d 13 87 bd 87 46 8d 3d 8a 5b b0 3d
       -0.090207554 -0.065954424 0.06898218 0.0861121
000160 4d bc e0 bd 52 cd 03 3e 40 3f 0a bd 8b 3c f1 bd
       -0.109734155 0.12871292 -0.033751726 -0.11779126
000170 ca 64 14 3e b9 aa c4 bc 47 00 fe bd 0c c5 39 bd
       0.14491573 -0.024007188 -0.12402397 -0.045353934
000180 a1 a1 40 3e 89 3d 84 3e de bd 96 3e e6 b6 6a bd
       0.18811657 0.25828198 0.29441732 -0.05730333
000190 d3 9b ed bd 67 39 56 3e a8 43 05 bd e3 f4 20 3e
       -0.11601987 0.20920335 -0.032535225 0.15718417
0001a0 06 1b 4d bd 92 af 21 3e 73 6e ff bc 3e 94 1b bd
       -0.0500746 0.15789631 -0.031180596 -0.03798317
0001b0 e1 e5 9d bc f9 e2 0d 3e f2 eb a5 3d db 0a c7 bd
       -0.019274654 0.13856114 0.081016436 -0.097188674
0001c0 14 d8 1c be a3 74 31 3e 21 6f 8e 3c 31 2b 0c 3e
       -0.15316802 0.1732965 0.017386975 0.13688351
0001d0 41 64 3c bd 64 55 11 3d 93 0d 16 3e 15 4e 21 3e
       -0.045994047 0.035481825 0.14653616 0.15752442
0001e0 c9 38 20 3e c7 f0 f8 3d e8 fd c5 3d c9 3d 06 3d
       0.15646662 0.121553 0.096675694 0.032773767
0001f0 3d 58 4b 3e cc db 72 3d d0 f1 31 bd 7c cd 81 3e
       0.19857879 0.059291646 -0.0434435 0.25352085
000200 30 5c 1c 3d ac 7f 0c bd 9b 7d 1d 3e 1a 5b d5 bd
       0.038173854 -0.034301445 0.15379946 -0.10417767
000210 40 b1 06 bb 00 fa ca 39 b9 a7 2d 3e 62 bf 28 be
       -0.0020552427 0.00038714707 0.16958512 -0.16479257
000220 19 7e 17 3e 40 61 bc bb e6 02 31 be 2a 90 74 bd
       0.14794196 -0.005748898 -0.17286262 -0.059707798
000230 80 f0 a5 bb b2 fd c0 bd 14 57 25 be c0 0c 14 bd
       -0.00506407 -0.094233885 -0.16146499 -0.03614497
000240 4f 57 ac bd 68 c3 13 bd 90 83 78 bc 00 f9 11 be
       -0.0841509 -0.036075026 -0.015168086 -0.14255142
000250 00 d5 3c 3a 1d 26 13 be a8 03 47 bd 62 2c d2 bd
       0.00072033703 -0.14370008 -0.04858747 -0.102623716
000260 96 f1 d7 bd 52 f4 82 bd 90 5e 9d bc c5 e8 c4 bd
       -0.10544126 -0.06394257 -0.01921013 -0.0961471
000270 e0 4f 08 3d 91 83 df bd 02 54 7d bd 30 9c b4 bd
       0.0332793 -0.10913766 -0.061847694 -0.08818853
000280 9b 7d 7f 3c 6d 6b 4b 3e cb c5 b5 3d 84 69 19 3e
       0.0155939115 0.19865198 0.08875617 0.14981657
000290 ca 52 9f bd 34 c6 23 3d 00 5f 3e 3e 0b 20 3c 3c
       -0.07779463 0.039983943 0.18590927 0.011482249
0002a0 9a 97 29 3e c5 50 49 3e c6 e9 c1 bd ac bc bf 3d
       0.16561738 0.19659717 -0.09468417 0.09362158
0002b0 c6 40 37 3e 98 9e 17 3e e8 07 29 3d 44 e0 04 be
       0.17895803 0.14806592 0.041267306 -0.12976176
0002c0 ae 91 0d be 66 8e 64 bd 73 f3 90 3c a5 72 28 3e
       -0.13825104 -0.055799864 0.01769421 0.16449983
0002d0 44 b9 ef 3d da b1 c1 3d b4 c0 a5 bc e7 ad f0 3d
       0.117052585 0.094577506 -0.02023349 0.11751919
0002e0 5b 6f bf 3d c9 94 63 bd 3b 0b 80 3e fa d6 1b 3e
       0.09347411 -0.055561814 0.25008568 0.15218726
0002f0 44 54 82 3e cf ba 3a bd f2 4b 17 3e 21 d7 44 3e
       0.25454915 -0.04558831 0.14775065 0.1922269
000300 46 fb 3d 3e c5 1b b4 3c 68 9b 99 bb 4e b6 00 3e
       0.18552884 0.021985898 -0.0046877153 0.12569544
000310 ce 56 fa 3d 49 70 48 3e 75 c0 50 3d 49 b1 81 3d
       0.12223588 0.19574083 0.05096479 0.063326426
000320 ef 51 65 3e 06 d3 c1 3d db 37 14 3e 25 70 64 3e
       0.22394536 0.09464078 0.14474432 0.22308405
000330 d9 2d 02 3e d9 c3 6c 3e 0b 95 d4 bd 56 b5 7f bd
       0.12712802 0.23121585 -0.1037999 -0.062428795
000340 f9 ad 03 3e 04 ba 64 3d 44 dc 64 3e 84 5d 20 3d
       0.12859334 0.05584146 0.2234965 0.039151683
000350 c1 6d 20 3e 10 e3 68 3c 2e fd 99 bc 16 c7 4f 3d
       0.15666868 0.014214292 -0.018797483 0.050726973
000360 c9 5c 21 3e d4 50 01 3e d0 e1 5b bd 3e 45 c9 bc
       0.15758051 0.1262849 -0.05368215 -0.02456915
000370 53 2a 15 3d e4 eb bc 3d 9b 03 ff bc 0e 72 62 3d
       0.036417317 0.0922468 -0.031129649 0.055284552
000380 dd 30 16 3e b5 4b 62 bd 27 37 59 3d 7f a2 45 bd
       0.14667077 -0.05524798 0.053031113 -0.04825067
000390 cb 56 ac 3c 20 ef b5 bc 23 81 30 3e e9 10 b5 3d
       0.02103748 -0.02220875 0.17236762 0.08841116
0003a0 1d 96 5e 3e 84 83 54 3b fd 78 15 be 1f f5 f8 3d
       0.21736951 0.0032427022 -0.14596935 0.12156128
0003b0 e6 4b 60 3e 2a 8d 6a 3e c0 1f fa 3d 93 f8 82 3d
       0.21903953 0.22905412 0.12213087 0.06395068
0003c0 55 a0 36 3e a8 ba a8 bc b1 1f 6a 3e f8 82 45 3c
       0.178346 -0.020596817 0.22863652 0.012055151
0003d0 ff 70 0e bd a3 c7 0c 3e f2 b7 23 3e 5a 58 74 3e
       -0.03477573 0.1374803 0.15988138 0.23861828
0003e0 d9 dd e7 3c 01 bb dc 3d ec 9a 95 bd 29 0e e6 3d
       0.028304027 0.10777856 -0.0730494 0.112331696
0003f0 5f cb 7f 3e 54 0a 12 3e 66 e1 38 3e 9d cb 0b bc
       0.24979924 0.14261752 0.18054733 -0.008532432

layer3.bias f4 [16]
000000 b7 9e 8a 3b 94 8c 78 3d 30 c4 aa 3d 93 c9 6d bd
       0.004230346 0.06068094 0.08338201 -0.058053564
000010 b8 f2 96 bc 6a 99 ef 3c e0 06 4a bd 01 9e 63 3e
       -0.018426284 0.029247958 -0.049322963 0.22228242
000020 23 95 0f 3e de 5c 48 be 73 36 f2 bb ad 9f aa bd
       0.14021735 -0.19566676 -0.0073917448 -0.08331237
000030 84 af c9 bc b7 8f 67 3e c6 1f 05 3e 38 67 39 3c
       -0.024619825 0.22613417 0.13000402 0.011316113

output.weight f4 [1, 16]
000000 d2 b4 6e bd 6d 4a 9b 3e 10 6e 4c be 5b 06 10 3e
       -0.058277912 0.3033022 -0.1996386 0.14064924
000010 22 70 52 be 40 2d a0 3e 15 1d f9 3d 1a 0a 02 3e
       -0.20550588 0.31284523 0.1216375 0.12699166
000020 24 7b 4c be 00 4a 3f bd a8 f7 21 be a4 59 4c 3e
       -0.1996885 -0.04670143 -0.1581713 0.1995607
000030 34 c4 46 be 13 bf 55 3e bf f4 c3 3d ac da 0f be
       -0.19410783 0.2087367 0.09568166 -0.1404826
